…
holygpu8a11103:0 out: 2024-11-14 21:05:56.483	holygpu8a11103.rc.fas.harvard.edu:0	olmo.model:1021	INFO	Initializing model parameters...
holygpu8a11103:0 out: 2024-11-14 21:05:59.426	holygpu8a11103.rc.fas.harvard.edu:0	train:109	INFO	Peak GPU Memory (MB) after FSDP: 2033
holygpu8a11103:0 out: 2024-11-14 21:05:59.426	holygpu8a11103.rc.fas.harvard.edu:0	train:110	INFO	Model:
holygpu8a11103:0 out: 2024-11-14 21:05:59.426	holygpu8a11103.rc.fas.harvard.edu:0	train:111	INFO	FullyShardedDataParallel(
holygpu8a11103:0 out:   (_fsdp_wrapped_module): OLMo(
holygpu8a11103:0 out:     (transformer): ModuleDict(
holygpu8a11103:0 out:       (wte): Embedding(50304, 1024)
holygpu8a11103:0 out:       (emb_drop): Dropout(p=0.0, inplace=False)
holygpu8a11103:0 out:       (ln_f): LayerNorm()
holygpu8a11103:0 out:       (blocks): ModuleList(
holygpu8a11103:0 out:         (0-11): 12 x OLMoSequentialBlock(
holygpu8a11103:0 out:           (dropout): Dropout(p=0.0, inplace=False)
holygpu8a11103:0 out:           (k_norm): LayerNorm()
holygpu8a11103:0 out:           (q_norm): LayerNorm()
holygpu8a11103:0 out:           (act): GELU(approximate='none')
holygpu8a11103:0 out:           (attn_out): Linear(in_features=1024, out_features=1024, bias=False)
holygpu8a11103:0 out:           (ff_out): Linear(in_features=4096, out_features=1024, bias=False)
holygpu8a11103:0 out:           (rotary_emb): RotaryEmbedding()
holygpu8a11103:0 out:           (attn_norm): LayerNorm()
holygpu8a11103:0 out:           (ff_norm): LayerNorm()
holygpu8a11103:0 out:           (att_proj): Linear(in_features=1024, out_features=3072, bias=False)
holygpu8a11103:0 out:           (ff_proj): Linear(in_features=1024, out_features=4096, bias=False)
holygpu8a11103:0 out:         )
holygpu8a11103:0 out:       )
holygpu8a11103:0 out:       (ff_out_last): Linear(in_features=1024, out_features=50304, bias=False)
holygpu8a11103:0 out:     )
holygpu8a11103:0 out:   )
holygpu8a11103:0 out: )
holygpu8a11103:0 out: 2024-11-14 21:05:59.428	holygpu8a11103.rc.fas.harvard.edu:0	olmo.optim:721	INFO	Constructing optimizer with 2 param groups
holygpu8a11103:0 out: 2024-11-14 21:05:59.473	holygpu8a11103.rc.fas.harvard.edu:0	train:272	INFO	Loading checkpoint from /n/home11/cbrownpinilla/color_filter/color-filter-olmo/ckpts/56504321_1/step815-unsharded/...
…
